input: "data"
input_dim: 1
input_dim: 3
input_dim: 384
input_dim: 384
input: "data_sal"
input_dim: 1
input_dim: 1
input_dim: 384
input_dim: 384
layer {
  name: "conv1_1"
  type: "Convolution"
  bottom: "data"
  top: "conv1_1"
  param {
    lr_mult: 1
    decay_mult: 1
  }
  param {
    lr_mult: 2
    decay_mult: 0
  }
  convolution_param {
    num_output: 64
    pad: 1
    kernel_size: 3
    weight_filler {
      type: "gaussian"
      std: 0.01
    }
    bias_filler {
      type: "constant"
      value: 0.0
    }
  }
}

layer {
  name: "relu1_1"
  type: "ReLU"
  bottom: "conv1_1"
  top: "conv1_1"
}
layer {
  name: "conv1_2"
  type: "Convolution"
  bottom: "conv1_1"
  top: "conv1_2"
  param {
    lr_mult: 1
    decay_mult: 1
  }
  param {
    lr_mult: 2
    decay_mult: 0
  }
  convolution_param {
    num_output: 64
    pad: 1
    kernel_size: 3
    weight_filler {
      type: "gaussian"
      std: 0.01
    }
    bias_filler {
      type: "constant"
      value: 0.0
    }
  }
}

layer {
  name: "relu1_2"
  type: "ReLU"
  bottom: "conv1_2"
  top: "conv1_2"
}
layer {
  name: "conv1_3"
  type: "Convolution"
  bottom: "conv1_2"
  top: "conv1_3"
  param {
    lr_mult: 1
    decay_mult: 1
  }
  param {
    lr_mult: 2
    decay_mult: 0
  }
  convolution_param {
    num_output: 64
    pad: 1
    kernel_size: 3
    weight_filler {
      type: "gaussian"
      std: 0.01
    }
    bias_filler {
      type: "constant"
      value: 0.0
    }
  }
}

layer {
  name: "relu1_3"
  type: "ReLU"
  bottom: "conv1_3"
  top: "conv1_3"
}
layer {
  name: "conv2_1"
  type: "Convolution"
  bottom: "conv1_3"
  top: "conv2_1"
  param {
    lr_mult: 1
    decay_mult: 1
  }
  param {
    lr_mult: 2
    decay_mult: 0
  }
  convolution_param {
    num_output: 128
    pad: 1
    kernel_size: 3
    weight_filler {
      type: "gaussian"
      std: 0.01
    }
    bias_filler {
      type: "constant"
      value: 0.0
    }
  }
}

layer {
  name: "relu2_1"
  type: "ReLU"
  bottom: "conv2_1"
  top: "conv2_1"
}
layer {
  name: "conv2_2"
  type: "Convolution"
  bottom: "conv2_1"
  top: "conv2_2"
  param {
    lr_mult: 1
    decay_mult: 1
  }
  param {
    lr_mult: 2
    decay_mult: 0
  }
  convolution_param {
    num_output: 128
    pad: 1
    kernel_size: 3
    weight_filler {
      type: "gaussian"
      std: 0.01
    }
    bias_filler {
      type: "constant"
      value: 0.0
    }
  }
}

layer {
  name: "relu2_2"
  type: "ReLU"
  bottom: "conv2_2"
  top: "conv2_2"
}
layer {
  name: "conv2_3"
  type: "Convolution"
  bottom: "conv2_2"
  top: "conv2_3"
  param {
    lr_mult: 1
    decay_mult: 1
  }
  param {
    lr_mult: 2
    decay_mult: 0
  }
  convolution_param {
    num_output: 128
    pad: 1
    kernel_size: 3
    weight_filler {
      type: "gaussian"
      std: 0.01
    }
    bias_filler {
      type: "constant"
      value: 0.0
    }
  }
}

layer {
  name: "relu2_3"
  type: "ReLU"
  bottom: "conv2_3"
  top: "conv2_3"
}
layer {
  name: "conv3"
  type: "Convolution"
  bottom: "conv2_3"
  top: "conv3"
  param {
    lr_mult: 1
    decay_mult: 1
  }
  param {
    lr_mult: 2
    decay_mult: 0
  }
  convolution_param {
    num_output: 25
    pad: 1
    kernel_size: 3
    weight_filler {
      type: "gaussian"
      std: 0.01
    }
    bias_filler {
      type: "constant"
      value: 0.0
    }
  }
}
layer {
  name: "data_transpose"
  type: "Convolution"
  bottom: "data_sal"
  top: "data_transpose"
  param {
    lr_mult: 0
    decay_mult: 0
  }
  param {
    lr_mult: 0
    decay_mult: 0
  }
  convolution_param {
    num_output: 25
    pad: 2
    kernel_size: 5
    weight_filler {
      type: "gaussian"
      std: 0.01
    }
    bias_filler {
      type: "constant"
      value: 0.0
    }
  }
}
layer {
  name: "data_transpose_back"
  type: "Power"
  bottom: "data_transpose"
  top: "data_transpose_back"
  power_param {
    power: 1
    scale: -1
    shift: 0
  }
}
layer {
  name: "conv3-prod_sal"
  type: "Eltwise"
  bottom: "conv3"
  bottom: "data_transpose"
  top: "conv3-prod_sal"
  eltwise_param {
    operation: PROD
  }
}
layer {
  name: "conv3-prod_back"
  type: "Eltwise"
  bottom: "conv3"
  bottom: "data_transpose_back"
  top: "conv3-prod_back"
  eltwise_param {
    operation: PROD
  }
}
layer {
  name: "conv3-prod_sal_sum"
  type: "Convolution"
  bottom: "conv3-prod_sal"
  top: "conv3-prod_sal_sum"
  param {
    lr_mult: 0
    decay_mult: 0
  }
  param {
    lr_mult: 0
    decay_mult: 0
  }
  convolution_param {
    num_output: 1
    pad: 0
    kernel_size: 1
    weight_filler {
      type: "gaussian"
      std: 0.01
    }
    bias_filler {
      type: "constant"
      value: 0.0
    }
  }
}
layer {
  name: "conv3-prod_back_sum"
  type: "Convolution"
  bottom: "conv3-prod_back"
  top: "conv3-prod_back_sum"
  param {
    lr_mult: 0
    decay_mult: 0
  }
  param {
    lr_mult: 0
    decay_mult: 0
  }
  convolution_param {
    num_output: 1
    pad: 0
    kernel_size: 1
    weight_filler {
      type: "gaussian"
      std: 0.01
    }
    bias_filler {
      type: "constant"
      value: 0.0
    }
  }
}
layer {
  name: "conv3-prod_sum"
  type: "Concat"
  bottom: "conv3-prod_back_sum"
  bottom: "conv3-prod_sal_sum"
  top: "conv3-prod_sum"
}
layer {
  name: "loss"
  type: "SoftmaxWithLoss"
  bottom: "conv3-prod_sum"
  bottom: "label"
  top: "loss"
  loss_param {
#    ignore_label: 255
    normalize: false
  }
}

